generator.pth (torch, 992476 bytes, 6 tensors)

main.0.weight f4 [128, 100]
00000000: 1874 3e3c f287 a9bc e940 20b9 884a d4bc
00000010: 8853 453d 488b f23c b6df 413d feaf a5bc
00000020: 98e9 3f3a 56e1 113a 6109 25bd b20a 88bd
00000030: f72c 2dbd c404 04bc 36f0 01bc 616f a33c
00000040: 3b58 2b3d f6e0 b6bc 4950 33bb ea75 94bc
00000050: 1ef6 c0bc f940 d3bb d2d8 27bd 406c 413d
00000060: 5ca7 0dbd 36c1 013d e715 803d 96ec 23bd
00000070: a5e3 32bd 42e8 033d 4e9b 0d3d bf30 22bd
00000080: 6136 353d bd72 87bd 4554 c83c 8832 2a3d
00000090: 61e1 7ebd b5d8 eabc 0d3a 90bd 4ca3 48bc
000000a0: f1ce 71bd 4bf2 e1bc 9c66 513d 7040 013c
000000b0: 67c4 12bb be30 1abd 2efd 11bd dd54 1cbd
000000c0: 5454 2dbd 9925 25ba 5d92 0fbd 33fb 2abd
000000d0: 6936 343c 6188 a8bc eca6 d8bc 06fd 56bd
000000e0: 0050 c9bc 2e94 12bd 609b eabc 8145 c0ba
000000f0: 75f8 56ba ec68 31bd 9b9b a4bc 1ed0 75bd
00000100: f47c 3d3d 9b75 263c e4bc 353b c6d2 6dbd
00000110: 1f9d 553d 8620 65bd cb8e fbbc 014c c0bc
00000120: f523 453c 166f fdbc 5459 c13b ac59 b5bc
00000130: 2d60 25bd d0e9 65bc 9131 b73c b713 a83c
00000140: 1df5 5cbc e253 1a3c 357e b93c 7a12 283c
00000150: 483e 5b3d e12a 91bc 6cda 833c 671e 973b
00000160: 054a 823b b79f a1bc 0c6b 0f3c 5647 44bd
00000170: f38b 973b c0ef abbd 6a28 1bbb 0018 24bd
00000180: cc29 a5bd 4dc7 d23c deb7 01bd 725c 473c
00000190: df56 89bb a1e4 60ba fa5e 67bc a11e b13c
000001a0: 016b ba3a d0c8 87bc bda2 81bc 4dad 86bc
000001b0: 9856 c2bc 56a1 6b3b 5ac8 093c f2b7 c93c
000001c0: da50 81bc fa03 c53a 04a2 c03c 5460 253c
000001d0: 8f23 18bd 2529 2e3c b453 8bbc 7aee f73b
000001e0: e263 48ba 09c3 12bc b800 86b9 11f6 f5bb
000001f0: a8e1 58ba aba6 aebc 85df 913c 2a68 d43b
00000200: 272e fa3c f1f1 94bc e2c8 f83c e86f 9b3c
00000210: 20ed dcbc 3a16 9f3c 2ba6 babc 0e2e d93b
00000220: bd69 143b 5345 ecbb 4a5c aa3b 3fc3 05bc
00000230: 743f a939 4eda e5bb 8a2c 26bc 9397 123c
00000240: ee0d 813b 8e2c 353c 8bfd b8ba 871b 1c3c
00000250: 0399 8fbb 89e5 a1bc 94c5 d8bc 8f97 a63c
00000260: 5474 6f3c 3dc2 93bc 2a50 093d 473d 50bc
00000270: 666f a7bc 047f 64bb f360 b3bc 3581 85bb
00000280: c974 69bc ed00 67bc 33c5 ad3c 981c a93b
00000290: 3877 97bc b13a a93c a727 9dba a381 8c3c
000002a0: adc9 d6bc a8c7 203d dae0 baba 2998 50bc
000002b0: 38db ba3c 9f95 833c fbdc e4ba d8b3 00bc
000002c0: f1ad cbba 91a4 0bbd 1464 803c 32f5 8b3b
000002d0: 368e 1cbd 6d13 a9bc bd10 ecbc 05b0 3bbc
000002e0: e555 22bc 014f 85bc 9405 3dbc 1bc0 6f3c
000002f0: bfd8 003c 5eea c2bc 54a4 02bd 8353 bc3b
00000300: 40d6 37bc 069d 64ba 97b4 d93c 78cf d0ba
00000310: 1769 85bc 4eec c63c ff81 9d3c dc33 81bc
00000320: ff62 09bb 82d5 9fbb 7a82 003b 841f 9c3a
00000330: ca65 d7bb ad71 37bb 2cbf 203b 3883 0dbb
00000340: dbdb d13b c4d9 8739 1915 4bbb fb87 0cba
00000350: 9325 133b 29ea f639 bb9e 0cbc a1dc 08bc
00000360: 2a80 86ba 8669 8fbb 47be fc3b e46b a53b
00000370: 3139 e63b 1fa5 1f3b cfbf 1c3c 21ec 06bb
00000380: 0d6c ba3a ea78 4bb8 7fbf 5fbb f06b df3b
00000390: 4586 6dbb 901f 64bb 114c 02bb 6a6f 2639
000003a0: 1304 1f3b 88e9 213b 939a 1a3b 2481 da3a
000003b0: 00cf 313b e46d 8e3b 19ea 75bb 3f0e cf3b
000003c0: 54a5 4b3b 30c8 82bb d2ee e839 2006 cbba
000003d0: 642f f83a ceec 4f3b 9c54 d43b 044b 6a3b
000003e0: deb6 963b e6f2 d3bb 7722 9c3b 2987 07bb
000003f0: 19dd 0c3b fe09 69b9 569d 50bb b454 7cbb
0.011624359 -0.020694707 -0.0001528297 -0.025914446 0.048175365 0.02960743 0.047332488 -0.020225521
0.000732088 0.00055648887 -0.040292148 -0.06642665 -0.04227921 -0.008057777 -0.007930806 0.01995057
0.04183219 -0.022324067 -0.0027361086 -0.018122632 -0.023554858 -0.0064469543 -0.04097826 0.047222376
-0.034583434 0.0316784 0.062541775 -0.040020548 -0.04367413 0.03220392 0.03457194 -0.03959727
0.044241313 -0.066136815 0.024454245 0.041552097 -0.062226657 -0.028667787 -0.07042322 -0.012245964
-0.059035245 -0.027581355 0.051123247 0.007888898 -0.0022394897 -0.03764414 -0.03564184 -0.03816687
-0.04231675 -0.0006299853 -0.035051692 -0.04174347 0.0109993005 -0.020572843 -0.026446782 -0.052487396
-0.02457428 -0.035785846 -0.028638542 -0.0014669151 -0.0008200475 -0.043312952 -0.02009373 -0.06001293
0.046261743 0.010159875 0.0027730996 -0.058062337 0.052151795 -0.05593922 -0.030707737 -0.023473741
0.012032499 -0.030936759 0.0059005413 -0.022137485 -0.040374923 -0.014032796 0.022362502 0.020517213
-0.013486174 0.009419413 0.022643188 0.010258311 0.053526193 -0.017720642 0.016095363 0.0046117785
0.003976109 -0.019729478 0.008753549 -0.047919594 0.0046248375 -0.08395338 -0.0023675212 -0.04006195
-0.08064613 0.0257298 -0.03166949 0.012168037 -0.004191264 -0.000857899 -0.014121765 0.02162105
0.0014222563 -0.016575247 -0.01582467 -0.016440058 -0.023722932 0.0035954318 0.008409584 0.024623845
-0.015785623 0.0015031092 0.023514755 0.010093767 -0.037143286 0.010629927 -0.017007686 0.0075662704
-0.0007644278 -0.008957633 -0.00025559007 -0.00750614 -0.00082733715 -0.021319708 0.017806778 0.006482144
0.030539585 -0.018181773 0.030369226 0.01897426 -0.026968539 0.019419778 -0.022784313 0.0066278046
0.0022646033 -0.0072104125 0.00519899 -0.008164226 0.00032281468 -0.0070145493 -0.010142455 0.008947271
0.003938428 0.011057986 -0.0014113648 0.009528047 -0.004382254 -0.019762771 -0.0264614 0.02033594
0.014615137 -0.018036956 0.033523716 -0.012709922 -0.020438861 -0.0034865746 -0.021896815 -0.0040742406
-0.014249035 -0.014099342 0.021212196 0.0051608793 -0.018489465 0.020657869 -0.0011989967 0.01715166
-0.026219213 0.039252907 -0.0014257685 -0.01273159 0.02280961 0.016062556 -0.0017460877 -0.007855378
-0.001553951 -0.03409249 0.015672721 0.004271173 -0.03822156 -0.020639146 -0.028816575 -0.011455541
-0.009908174 -0.016273024 -0.011536974 0.014633204 0.007864176 -0.023793396 -0.031894997 0.00574726
-0.011220515 -0.0008720908 0.02657537 -0.0015930971 -0.016285462 0.0242826 0.019227026 -0.015771799
-0.0020963547 -0.004877747 0.001960902 0.0011911248 -0.0065734135 -0.002799134 0.002452801 -0.0021593105
0.0064043826 0.00025911455 -0.0030987917 -0.0005360839 0.0022452816 0.0004709524 -0.008582766 -0.008353383
-0.0010261585 -0.004376593 0.0077131125 0.005048262 0.0070258607 0.0024359894 0.009567215 -0.002058752
0.0014222875 -4.851158e-05 -0.003414124 0.006818287 -0.003624336 -0.0034808852 -0.0019881765 0.00015872499
0.0024263903 0.0024705846 0.0023590669 0.0016670567 0.0027131438 0.004346596 -0.0037523566 0.006318837
0.0031073885 -0.0039911494 0.00044428423 -0.0015489496 0.0018935022 0.003172684 0.006479813 0.003575028
0.004599436 -0.0064681647 0.0047648507 -0.0020679927 0.002149409 -0.00022224334 -0.003183206 -0.0038502635

main.0.bias f4 [128]
00000000: 7806 1fbe 889e 08be 2917 d4bd 0339 efbd
00000010: ee02 36be a28a d4bd e1e4 20be 0979 19be
00000020: 3404 4dbe e909 abbd 9abf bd3c a087 6cbd
00000030: 55a1 f5bd 5e4c b3bd aefd 21bd 4455 23bd
00000040: 6b27 76bd f2c5 1abe 78a1 7fbd e0ac 29bd
00000050: bc03 8dbd 3925 1ebd 34a8 bebc cbbb c4bb
00000060: 26f2 0b3c 1bfc 2abe cade 6abd ca93 febd
00000070: c4e0 4abd afb0 4cbd cc70 1dbd 7111 4abc
00000080: 9947 91bd a82b f4bd 45c6 37be 45ae ccbc
00000090: 6794 abbd e37c 8dbd db40 12be c0ab 0cbd
000000a0: d089 a6bd 615a 37be e4b5 09be eddf 67bd
000000b0: 2045 19bd 0bb0 473d 0a5f 07be b60a 703c
000000c0: a870 1dbe ca05 dcbc cdd8 97bd 0b46 13bd
000000d0: 7b3d afbd a1a2 1bbe a684 e4bc d923 c9bc
000000e0: 6720 babd f06d 02be 7534 61bd bfe3 aebd
000000f0: df86 c4bd 9bcd 01be 33c5 87bd bd44 23bd
00000100: 24ff b1bd 21d4 7d3c 6afa 41bd c11a 83bd
00000110: b497 4ebd 2c4f 31bd 7d98 babd 12f3 5fbd
00000120: 5696 62bd 073e 70bb 0fd1 82bd 6db4 b53b
00000130: 11af dcbc 5c78 71bd 2e8d 1abe f5a2 4ebe
00000140: ed41 09be 0ff7 87bd 58da 8fbd a590 babd
00000150: 4bea 0ebe 861a dbbd 4555 a6bd 4ce1 f9bd
00000160: ad5b 46bd c1a1 83bd 7940 03be f01a 37bd
00000170: afd8 0fbd c4db fbbd 0529 22bd 1960 7fbd
00000180: 7bb5 14bd 3e1a 8fbd 2453 b5bd ba44 54bd
00000190: 999f 52be 6cad b8bd f7b1 60bd 4441 e1bd
000001a0: 0385 15be 6017 93bd 66e1 8dbd a646 8b3c
000001b0: dc35 b2bd a555 1bbe 4f6f 0abe 9f66 cebd
000001c0: 8a1e 61bd e7cc 20bd 6f06 86bd 94f7 c3bd
000001d0: b0d9 42bd 6586 30be ca45 cdbd cb98 95bd
000001e0: 0045 e3bd f20b 65bd 87c0 e2bd afba 3a3d
000001f0: 2ba0 92bd d004 6abd 884a c8bd 4de6 acbd
-0.15529811 -0.13341725 -0.1035598 -0.11680796 -0.17774555 -0.103780046 -0.1571231 -0.14987577
-0.20021135 -0.083514996 0.023162652 -0.05774653 -0.11993662 -0.087548 -0.03954857 -0.039876238
-0.060096186 -0.15114573 -0.062409848 -0.041424632 -0.06885478 -0.038609717 -0.023273565 -0.006003832
0.008541619 -0.16697733 -0.057341374 -0.12430532 -0.04953076 -0.049973186 -0.03843765 -0.01233326
-0.07093734 -0.11922389 -0.17946728 -0.024985442 -0.08377915 -0.06908586 -0.14282553 -0.03434348
-0.081317544 -0.1790557 -0.13448292 -0.056610037 -0.03741944 0.048751872 -0.13219848 0.014650991
-0.15375006 -0.02685823 -0.07414398 -0.03595547 -0.08556648 -0.15198757 -0.027895283 -0.024553226
-0.090882115 -0.1273725 -0.054981668 -0.08539533 -0.09596037 -0.12676089 -0.0662941 -0.039860476
-0.08691242 0.01549247 -0.047357954 -0.06401587 -0.050437644 -0.043288395 -0.09111116 -0.05467517
-0.055319153 -0.0036658065 -0.06387531 0.00554519 -0.026938947 -0.058952674 -0.15092918 -0.2017935
-0.13404055 -0.066389196 -0.07024068 -0.0910962 -0.13956563 -0.10698418 -0.081217326 -0.12201175
-0.048427273 -0.064273365 -0.12817563 -0.044703424 -0.035118755 -0.12297776 -0.0395899 -0.062347505
-0.036305886 -0.06987427 -0.088537484 -0.051823355 -0.20568694 -0.090174526 -0.05485722 -0.109987766
-0.14601521 -0.07182193 -0.06927757 0.017001461 -0.08701679 -0.1516939 -0.13519023 -0.10078167
-0.054960765 -0.03925791 -0.06544196 -0.09568706 -0.047570884 -0.17238767 -0.10023077 -0.073045336
-0.11097145 -0.055919595 -0.11071878 0.04558819 -0.07159456 -0.057133496 -0.09779841 -0.08442364

main.2.weight f4 [256, 128]
00000000: d7d0 c53b 25f7 30be 8c38 1a3d 85c3 3a3d
00000010: ed6a dabd 9e75 6a3d c650 c1bd d030 16be
00000020: c53b 34be 8c10 3b3e 0095 67bd 3408 883d
00000030: 43ab 6f3b cba1 da3c c424 653d 0c3e d7bd
00000040: efa6 e83d 0976 803d 6873 08be 02c9 3abe
00000050: ea9b 903d c578 963d 6545 77bd 66e7 91bd
00000060: 8850 493d 6227 9f3d 7112 22be ff19 b6bc
00000070: a8a4 b83e 4043 7d3d 3efc 12bd 104c 893c
00000080: 820f 373d c283 d83d 3838 78bc 58f5 043e
00000090: 05d1 733c 3be7 063e 143a b43d 65a6 d23d
000000a0: 34c1 bdbd 70c4 1fbd 1432 e53d 7ff3 083d
000000b0: 7a28 96bc e5e4 583e a346 c9bd 36ce 823e
000000c0: 50b1 0e3d 78c1 2d3e 8615 82bd a6ee 31bd
000000d0: bc5a 0ebe d17d a43d 4971 18be 8aba 3e3e
000000e0: 6061 a13d ffac 163d b183 a93d 026e 113c
000000f0: 27fa 983c d40c 303e a602 14be 6728 603d
00000100: e0e3 83bd 0932 cd3e 1852 61bd 5bf2 bbbc
00000110: 43aa 803c 1b22 963e 4c1b 6b3d a889 83bd
00000120: 265e 3ebd f04f 863d d7be 42bd e011 873d
00000130: fe86 16be f493 90bd 53c9 32be 26be b43c
00000140: 47ac 523d 152a 8dbd 1e7d 413e 04a9 f73d
00000150: 9142 3cbe ba68 d2bd 632a 87bd 0618 003e
00000160: 1c4f 0d3e 4f01 babd 1b19 eabd cb98 263d
00000170: 3bbd 07bd 4c8d 643e 24cc 05be 61c2 603d
00000180: 079d ab3d e897 5b3d 4bc9 e0bd bbbe bfbc
00000190: 3f2e fe3b 9d51 263e 6fb2 85bd 0e27 793d
000001a0: ebd1 a73d a4b0 1ebe 8f3a b7bc d525 513e
000001b0: 1c38 dcbc a243 413e cf2d b43d 2dfa e33d
000001c0: c90e c43c 6501 e23d 3e25 323d 8d2e 183d
000001d0: 1ee1 c53d cd20 1a3b fcac 05be 0bac 2c3d
000001e0: 76c2 8bbd 7840 de3d d372 f73c cc2e 813d
000001f0: 99fa f0bd 7f41 313d 986d c83d 4f49 c83d
00000200: b540 55bc a649 2e3e 58cd 64bd 3c60 b8bd
00000210: 2181 4d3d 8a11 0cbd c05a 9abd eed6 b83d
00000220: 2bbe 2d3e ac86 9fbc 3306 323e 0be1 e23c
00000230: 4f56 053c 75fd 083e 5a59 abbc 2f36 07bc
00000240: 0fa5 f73c d944 c1bc dd1f cdbd 0a8a 693e
00000250: 74f2 c1bd 2bd9 b63e 5c0e ce3d fbf5 5c3e
00000260: ee97 a1be 52b8 ca3c 3298 983c 8a1c 7d3e
00000270: bd12 1bbe fa98 4b3e dd70 acbd 94ef f13d
00000280: 4164 903d 5cb6 9abc 7dff 71be 8aaa ddbd
00000290: 5e52 edbd c08e 453d 60a5 66bc e071 9f3e
000002a0: 8129 b23d d198 19bc ea6d e7bc 641e 92bc
000002b0: afe1 713b 625d fcbd 1bca 8b3c af6e 743e
000002c0: 8b24 e93d ee6c 873d d217 a3bd 7fe0 9b3d
000002d0: 9f6d 293e e779 e8bb 18b0 abbc 931d bf3d
000002e0: f24d 24bc 85f6 3fbd 1d68 0c3e 0256 1b3e
000002f0: 3bc0 f5ba d4bb 033e 9a80 9ebd b28d 603d
00000300: b089 763d baac 0b3d 4ffe 67be 8c2a d7bd
00000310: 87b5 143c a92d f13a 4ced 793d 6291 173e
00000320: 002d 983c 17d6 c0bd 3a78 af3d 42a0 66bc
00000330: e3db d03d ef7c 6b3e 6d91 6c3e 3b90 8fbd
00000340: aa56 cb3d 67c5 1d3e a0f5 b73d 4e9e a1be
00000350: 2e36 2bbd 3698 bd3d 1990 f83d 22ec 80bd
00000360: 50c6 36bd 432d 203d 2e13 2bbd 5489 b83b
00000370: cc6f 2ebd 9240 babd d61d d9bc 4ed6 34bd
00000380: 115d d63d b14b 0a3e 163e f6bd 2749 bf3c
00000390: 6e0b 6cbd f31c a6bd 5639 ac3d 5d59 e23d
000003a0: 586a 3bbd 8abb 903d 98d5 5dbe 13bb 64bd
000003b0: 22d9 c43a 9a39 bdbd 3f98 7a3d 1481 1dbb
000003c0: ead7 6e3c 5a7c 103d 6f94 51bd 0fa7 0e3e
000003d0: d2c7 86be 4ad5 2bbe f9fe b03d 8d92 3fbd
000003e0: 4c7a 3cbd d541 a23c caa0 ad3d 4fd4 46be
000003f0: 768d 0d3d d5f9 a0bd e24e d9bd 9b5e 40bd
0.0060368585 -0.17281778 0.037651584 0.04559662 -0.10664926 0.057241075 -0.094392344 -0.14667058
-0.17600925 0.18268031 -0.05653858 0.066421896 0.0036570586 0.026688477 0.055943266 -0.105098814
0.11359965 0.062725134 -0.13325274 -0.18240741 0.07060988 0.07347254 -0.060368914 -0.07124214
0.049149066 0.077711836 -0.15827347 -0.022229193 0.36063123 0.061831713 -0.03588509 0.016759902
0.044692524 0.10572006 -0.015150122 0.12984216 0.014881377 0.13174145 0.0880014 0.102856435
-0.09265366 -0.039005697 0.11191192 0.03343534 -0.018329848 0.21181066 -0.09827926 0.2554795
0.034837067 0.16968334 -0.063517615 -0.043440484 -0.139018 0.0803181 -0.14886965 0.18625847
0.07879901 0.036786076 0.08277071 0.008876326 0.01867397 0.17192394 -0.14454135 0.05472603
-0.06439948 0.40077236 -0.05500993 -0.022942713 0.015706187 0.29322895 0.05739908 -0.0642274
-0.046476506 0.065582156 -0.04754528 0.06595206 -0.14699933 -0.0705947 -0.17459612 0.022063326
0.051433828 -0.06892792 0.18895385 0.12092784 -0.18384768 -0.10273881 -0.065998815 0.12509164
0.13799709 -0.09082281 -0.1143057 0.04067306 -0.03313945 0.22319525 -0.13066155 0.054872874
0.0837956 0.053611666 -0.109758936 -0.023406377 0.007756978 0.1624207 -0.06528174 0.06082826
0.081943356 -0.1549707 -0.02236679 0.20424588 -0.026882224 0.18873456 0.087978 0.111317016
0.023932831 0.11035422 0.04349255 0.03715377 0.09662078 0.0023518086 -0.1305427 0.04215626
-0.068242 0.1085214 0.03020612 0.06307754 -0.11766548 0.043275353 0.09786528 0.097796075
-0.013015916 0.17020282 -0.055859894 -0.0900273 0.050171975 -0.034196414 -0.075368404 0.090253696
0.16967075 -0.019473396 0.17385177 0.0276952 0.008138253 0.13377936 -0.02091663 -0.0082526645
0.030230073 -0.0235924 -0.10015843 0.22806564 -0.094700724 0.3571256 0.100613326 0.21578209
-0.31561226 0.024746094 0.01862726 0.24717918 -0.15143867 0.19882575 -0.084199645 0.11813274
0.07050372 -0.018885784 -0.23632617 -0.10823543 -0.11587976 0.04823184 -0.014077514 0.31141567
0.086993225 -0.009374813 -0.028250653 -0.017836757 0.00369082 -0.12322499 0.017064145 0.23870347
0.11383923 0.066125736 -0.07963528 0.076111786 0.16545723 -0.00709461 -0.020957991 0.09331813
-0.010028349 -0.04686596 0.13711591 0.15169528 -0.0018749306 0.1286462 -0.077393726 0.05482263
0.060189903 0.03410027 -0.22655605 -0.10506162 0.009076483 0.0018400449 0.06101732 0.14801553
0.018576145 -0.094158344 0.08567853 -0.014076294 0.1019819 0.22996877 0.2310235 -0.07009932
0.09928639 0.15407334 0.08982396 -0.3156609 -0.041799717 0.092575476 0.121368594 -0.06295039
-0.04462272 0.039105665 -0.041766338 0.005631605 -0.042587087 -0.09094347 -0.026503485 -0.04414969
0.1046697 0.13505436 -0.12023561 0.023350311 -0.057628088 -0.081109904 0.084093735 0.11052201
-0.045755714 0.0706702 -0.21663511 -0.05584247 0.0015018324 -0.09239502 0.06118035 -0.0024033235
0.014577845 0.03527484 -0.051166948 0.13930915 -0.26324326 -0.16780582 0.08642382 -0.04677062
-0.04601507 0.019806782 0.08477934 -0.19416927 0.034558736 -0.07860152 -0.10610749 -0.046965223

main.2.bias f4 [256]
00000000: ab07 2bbd ac3a 9dbc efc4 e2bd 380b a23d
00000010: a349 a3bd a208 183e 816a f6bc 8cbb ee3c
00000020: 4c07 82bd e9f7 e7bc 7171 01be a49a d4bd
00000030: 09af a3bc cb08 1f3e 5dbe 0c3d 8c46 0dbd
00000040: d389 6cbd 03f5 ed3d 0b6f 15be fad6 0e3e
00000050: 82b9 b0bd a8dd 3abd 284d d73c 8b25 433d
00000060: 3a96 5dbc d259 f6bd 145c 5f3d cfa4 9cbd
00000070: c0ad b33d 00db c4bd 77d7 723d dc4d b33d
00000080: 2576 513d 226e 82bd fab1 70bd 453c 98bd
00000090: 1a7e 3ebd 3083 4abd 6235 b5bd 9047 c3bd
000000a0: 4f0e 9ebd c0fa 3f3e 7c34 a2bc a157 cdbd
000000b0: a8ed f7bd f3e4 81bc ae9b a3bd 614e 4bb9
000000c0: 3767 01be 667c edbc b7b0 c03c e1aa 55bd
000000d0: 4941 cd3d 0507 bd3d 8ea2 1cbd b86d 2cbe
000000e0: 5411 bb3c 6711 e8bd 45d6 2d3d d852 f43d
000000f0: 4cff 7c3d 423b 283e 99e2 24bd f886 01be
00000100: 2fe1 363c 0ae6 7dbd d48a 233e 24ec 31be
00000110: f93c db3b 9b35 3c3e 5c78 cebd a0d6 6f3d
00000120: 3816 013e b5db a7bd e642 b3bd fe1a 9b3d
00000130: f777 acbc 307d 693d 3d33 13be 0683 ecbd
00000140: a9f0 58bd 0b1d 8ebd dc29 d1bd edf4 11be
00000150: 86c9 023c 8602 ecbd c784 123e d6a0 94bd
00000160: 0328 8cbd eb39 083e 9626 69bd c600 f1bd
00000170: d329 debd 9a18 c6bc 22ef a03d 2168 f3bb
00000180: 415a 12be ad5d ca3c 25ab 0bbe fafd 47bd
00000190: d29e 22be 9199 07bd bf4c 853d 0323 03be
000001a0: 7cab 223e 604e c83d 6474 babd b3a1 14be
000001b0: f49d 8b3d 40cf 05be fade 703e 83cb 73bd
000001c0: 86a0 9abd 8729 f4bd 9fef 08be b486 f7bd
000001d0: 5445 41be 5a1e dabd d11f d9bd 1053 8fbc
000001e0: 9f1e ecbd 18ce 033d 6027 e1bb d8ea b0bd
000001f0: a34a 7ebc 4581 363d 3185 4b3c ec71 8ebd
00000200: 1b0f d3bd 21ab 213d f071 68bd 75fc 1d3d
00000210: 2cc8 55bd 95d4 dcbc 4429 463d 142b c03b
00000220: 3fed 0cbc 597d f8bd 0d71 a8bd 96cc 08be
00000230: 7a62 d43d 7c60 823c c69f a4bd ffba 3f3d
00000240: 114a 0ebd 45fb 95bd c08d 99bd e4d9 3c3d
00000250: 43ad a83d 5b4e 16be dd59 963d 4216 f13d
00000260: 059e eabd 959a 933e 603a 1d3e c971 383e
00000270: 0dc2 92bd 90f5 41bd 2ff4 96ba fa7e 94bd
00000280: 4771 70bd dad8 443e dc5c c6bc 1a55 afbd
00000290: ca72 38bd 7909 943d edce 45bd 24bc 9cbd
000002a0: a2fd 0c3e 1f0a 85bd 366d 45be 0f86 a03e
000002b0: 4744 d9bd 39c3 c0bd 5171 06be 4515 e4bd
000002c0: c0bb f8bd cbf8 063e 4c45 0ebe 37f9 e43c
000002d0: 1e58 f83c 001a 573d 8cd3 85bd e463 6abd
000002e0: 3338 073e faa7 a63b 1b1a 0dbe da5b cfbd
000002f0: 6fb5 213d 8eaf bd3d 3c37 f03d 96bf edbd
00000300: 9cb8 ea3d 1f43 a23d ade6 d13d 1b6e 043e
00000310: e9b8 6abd b968 af3d d722 063e 0759 e1bc
00000320: 9f1d 6abd 48d0 0c3e 40dc e9bc 1b22 37bd
00000330: c73f efbc 1e94 9ebd 740a ef3d 1867 dfbd
00000340: 32d1 c4bd b169 e0bd cc6c b4bd 46f6 a83d
00000350: b31a 8cbd 95a2 5fbd f5d0 21be 979d d43b
00000360: 3143 0abd efa8 ccbd 18d3 cc3a 573f dfbc
00000370: b698 eabc 1efb 803e d607 a7bd 0ef4 223d
00000380: 7089 96bd d0e1 c7bd 8923 203d 6997 a2bd
00000390: d9a7 413e 7fd3 af3d f6d8 b8bd 042f 8bbd
000003a0: a740 38bd 8c92 78bd b072 fe3c c394 a83d
000003b0: b922 ecbd ceda 94bd 8bf3 febc 4a9f efbd
000003c0: 8d2d fbbd feaf 0a3e 0f7b 24bd 4fcf f73d
000003d0: d8d2 50bd 5981 7bbd a912 2d3d fd58 b83d
000003e0: 8a24 debd 5c59 643d 0c75 f93d ba4c 57bd
000003f0: 19fd 14be 25ac 813e 3e2a 30be 937c 03be
-0.04175536 -0.019193016 -0.11072718 0.07912296 -0.079730295 0.14847043 -0.030080082 0.029142164
-0.06349048 -0.028316455 -0.1264093 -0.10381058 -0.019980924 0.15530698 0.034361232 -0.034491107
-0.057748627 0.11618998 -0.14593141 0.13949195 -0.08629133 -0.045621544 0.026281908 0.047643226
-0.013524586 -0.120288506 0.054531172 -0.07648622 0.087733746 -0.096120834 0.059287515 0.08755085
0.051138062 -0.063686624 -0.05876348 -0.074333705 -0.04650698 -0.049441516 -0.088480726 -0.09535134
-0.07717573 0.18747997 -0.019800417 -0.100264795 -0.12105876 -0.015856242 -0.07988678 -0.00019388787
-0.1263703 -0.028989982 0.023521764 -0.052164916 0.10022218 0.092298545 -0.03824096 -0.1683873
0.022835411 -0.11331444 0.04244067 0.11929864 0.061766908 0.16428855 -0.040255163 -0.12649143
0.011162086 -0.06198696 0.15970927 -0.17375237 0.006690618 0.18379824 -0.100815505 0.05855429
0.12606132 -0.08196203 -0.08752994 0.07573508 -0.021053297 0.057004154 -0.14375015 -0.11548428
-0.052963886 -0.06939133 -0.10213062 -0.14253588 0.007982617 -0.11523919 0.14308463 -0.072572395
-0.06843569 0.13303344 -0.056921564 -0.11767726 -0.10847821 -0.024181653 0.07858111 -0.0074281846
-0.14292242 0.024702871 -0.13639505 -0.048826195 -0.15880898 -0.033105437 0.06508779 -0.12806325
0.15885729 0.09780574 -0.09104231 -0.14514808 0.068172365 -0.13067341 0.23522559 -0.059520256
-0.07550149 -0.11921983 -0.13372658 -0.120862395 -0.18874103 -0.1065032 -0.106017716 -0.017495662
-0.11529278 0.03217897 -0.006871149 -0.08638543 -0.0155207245 0.044556875 0.012421892 -0.069553226
-0.103056155 0.039469842 -0.056749284 0.03857084 -0.052192852 -0.026956836 0.048379198 0.0058645103
-0.008601486 -0.12133283 -0.08224688 -0.13359293 0.103703454 0.015915148 -0.08038287 0.046809193
-0.034738604 -0.073233165 -0.0749774 0.046106234 0.08236172 -0.14678328 0.07341359 0.117718235
-0.11455921 0.28828874 0.153543 0.18012156 -0.071659185 -0.047353327 -0.0011516864 -0.07250781
-0.05870178 0.19223347 -0.0242142 -0.08561154 -0.045031346 0.07228369 -0.048293043 -0.076530725
0.13768628 -0.06496071 -0.19279942 0.3135228 -0.10608726 -0.09412236 -0.13129164 -0.11136869
-0.121451855 0.13180844 -0.13893622 0.027950866 0.030315455 0.05251503 -0.0653449 -0.05722417
0.13205032 0.0050859423 -0.1377949 -0.10124941 0.03947967 0.09262 0.11729285 -0.11608808
0.11460993 0.079229586 0.10249076 0.12932627 -0.05730525 0.08564896 0.13099228 -0.027508272
-0.057157155 0.13751328 -0.028547406 -0.04471026 -0.029205216 -0.07743095 0.11671916 -0.109083354
-0.09610213 -0.10957659 -0.08809814 0.08250098 -0.0684103 -0.05459841 -0.15802367 0.0064885127
-0.033755485 -0.09993159 0.0015626876 -0.027251882 -0.028637271 0.25191587 -0.081557915 0.03978353
-0.07350433 -0.09759867 0.03909639 -0.079390354 0.18911685 0.085852616 -0.09025757 -0.06796077
-0.044983532 -0.060686633 0.031060547 0.08231499 -0.1153006 -0.07268296 -0.03112199 -0.11700304
-0.122645475 0.13543698 -0.04015642 0.12100088 -0.050982326 -0.061402652 0.042254124 0.09001348
-0.10846813 0.055749282 0.12180528 -0.052563407 -0.14549674 0.25326648 -0.17203614 -0.1284049

main.4.weight f4 [784, 256]
00000000: 7960 1cbe 0407 0f3e 2b43 083e ddec b7be
00000010: c55b 10bd 7900 a7be 446e c4be 1baf 7abc
00000020: ade7 28be 824c 843d aff6 cc3d 8b0f 1bbe
00000030: 8b29 0c3e e190 cebd dba2 eebd 4707 f53d
00000040: a196 38bc 8b5a 78bc 11a5 f33d bee8 adbe
00000050: 2e53 9dbb 6fe1 203d 24da 3b3c a2a4 d5bd
00000060: 2256 19be 3f61 b23d 5004 f3bd d969 00be
00000070: 31d3 33bc b1d7 373e b9b4 20bd 3e47 11bf
00000080: 449d 83be 716c be3d 2b57 18be 5bfe a6be
00000090: 8049 c6bc a5e4 f3bd bf5e 93bb 0c03 0cbd
000000a0: 0ece ffbe 7e3b 3ebe 71c9 efbd c7c3 85be
000000b0: dce8 99bd 1aae edbd f372 b83c 6c15 29be
000000c0: 75ad 813d 5645 3bbd c22f e03c 9987 533e
000000d0: d7ac b4be 9de1 01be af27 ffbd cc55 303d
000000e0: daeb 81be 92a2 d1be 454c 08be 5714 f2bd
000000f0: cf4c 36be d2a6 a4be 40c9 433d b6b9 473e
00000100: dd4c 5abe 736c 01be aaa9 09bd 1047 19be
00000110: 0a27 42be 9ba6 e1bd ca4b 07be 2a72 42be
00000120: 09ec dbbc 84c7 d5bd 21a6 033d 0e5e 93be
00000130: 8b93 21be d573 04be 5f15 483d a48a 44bd
00000140: 6627 dfbd cca0 8b3d e61c f83d 2843 333e
00000150: 2bd9 d4bd 7969 b53d 6664 7ebe cd65 d0bd
00000160: 90f1 9b3d ec32 81bd cb16 78be bf50 b3bd
00000170: bea1 55be dce4 9fbe 297d 1ebd 3ca9 a43c
00000180: 8304 4bbe 338d 79be 1403 423d 9a99 35bd
00000190: 8d45 bcbd b347 1cbe cbbd 463d af98 f93c
000001a0: a68d 03be 928e 8ebd 9541 213e 7bfe 9b3d
000001b0: e447 39bd 4c80 213e 7cfc 91be 55bf 39be
000001c0: 141d 073e cb35 3b3c a475 15bd b48f 603e
000001d0: 73b1 4ebd 60fb 453e df03 2abe 7eef 89bd
000001e0: cf92 80bd 679a 82bd 7755 2d3c 63a9 21bd
000001f0: 0cb8 48be 0177 7dbc 62aa 89be ef7e d1bd
00000200: cb0a 6b3e a969 90be 405e f2bd 38d4 1a3d
00000210: a049 473e 2c41 5bbd 9375 a1bd fa46 5d3d
00000220: 7472 033e 5e43 e0bd edca abbe d04f 88ba
00000230: 547f b5bd 7396 78bc c8d7 13be 797e 0fbe
00000240: fed7 e8bd 7811 583d 6643 58be 88c4 7ebe
00000250: 0784 59be 3b33 bdbd 88b5 e8bd a086 01be
00000260: 555e 3dbd 574f 1fbe ef3a 01be 9594 aebe
00000270: 4c59 90bd f878 8e3d a5f7 89bd f3d6 d8bc
00000280: f293 bdbe a0b4 96be f408 3bbe eb79 293e
00000290: 4199 a53d 232c 623c 04ff 68be 6e83 b4bd
000002a0: 559a 76bd 0ff7 bf3d 7b17 0b3e 6480 6cbe
000002b0: 4018 ae3d 205f 81be d93a fc3c 81b3 e83d
000002c0: 62e9 ab3d 4d35 dfbd 70d6 c43d 01ed aebe
000002d0: 75cb adbc b5c2 9abe ec0d 9cbc 4f49 a13d
000002e0: 76eb 87be dfc2 44be 8f18 9abc f850 fbbc
000002f0: b7cb 36be 2dd6 d1bc 2da4 f3bd 11d9 0dbe
00000300: 0db9 0ebe 8bd4 0bbe c5f8 73be 5527 b9be
00000310: 2afb 22be 9718 363e 48e6 b4bd 3a7d 05bd
00000320: 7b9f 003e 8bc1 9cbe 9310 c13d cfe2 39bd
00000330: f092 bf3c fb20 b13d f1cd 81be 5067 6fbd
00000340: 9711 b2bd 5c65 5c3e e040 f3bd ff22 75bd
00000350: 6f14 2dbe 4b8e 54bd 9113 4dbe b8b1 88be
00000360: 8b1f bc3d dae5 85bc 72bc 50be 8df8 13bd
00000370: 3c3b 07bd 3185 95bd a0f0 5ebd e2b6 d0bd
00000380: cc5e b83d 00ed 0a3e 10ec 6fbe d691 0f3e
00000390: cd6d 8abe 1dbc 9cbe 5217 6dbc db5b 45bd
000003a0: e55f 153e 1232 c0bb 6ef7 3ebb d549 0ebe
000003b0: 2c6b 23be 39e9 633d cf9d 443e 2aff d03d
000003c0: 87a5 7dbd d03d c63d 9ea0 563d e31d 81bd
000003d0: 4116 a2bd 4f03 7bbe b228 9dbe 882b 67bc
000003e0: ed43 263d f858 5dbe de6d b3bd f852 eabd
000003f0: 9ea3 153e dbd0 7dbd 085d 63bd ac8f d03d
-0.15271176 0.1396752 0.13306873 -0.359229 -0.03524377 -0.32617548 -0.38365376 -0.015300537
-0.16494627 0.06459905 0.10007989 -0.15142648 0.13687722 -0.10086227 -0.11652156 0.11964279
-0.0112663815 -0.015158306 0.11896718 -0.3396663 -0.0048011756 0.03927749 0.011465583 -0.10431792
-0.14974263 0.087099545 -0.11866057 -0.12540378 -0.010975645 0.17953373 -0.03923485 -0.5674933
-0.25705922 0.09298027 -0.14877002 -0.32615933 -0.02420497 -0.11908845 -0.0044973786 -0.034182593
-0.49961895 -0.18577382 -0.11708344 -0.2612593 -0.075151175 -0.11605473 0.02251575 -0.16512078
0.063319124 -0.04572042 0.027366523 0.20657195 -0.35288116 -0.12683721 -0.12458741 0.043050572
-0.25375253 -0.40944344 -0.13310345 -0.11820286 -0.17802738 -0.32158524 0.04779935 0.19504437
-0.21318384 -0.12639026 -0.03360907 -0.14968514 -0.18960205 -0.110181056 -0.13212505 -0.18988863
-0.026845949 -0.10438445 0.032140855 -0.28782696 -0.1577894 -0.12934811 0.048848506 -0.04798378
-0.108961865 0.06817779 0.12114887 0.17506087 -0.10392984 0.08858008 -0.24842986 -0.10175667
0.07614434 -0.06308541 -0.24227445 -0.087556355 -0.20862481 -0.31229293 -0.03869358 0.020100228
-0.1982594 -0.2437027 0.047366217 -0.04433594 -0.09192953 -0.15261726 0.048520844 0.030468313
-0.12847003 -0.06960787 0.15747674 0.07616898 -0.045234576 0.15771598 -0.28512943 -0.18139394
0.13194686 0.011426399 -0.036489144 0.21929818 -0.050462198 0.19334173 -0.16603039 -0.06735133
-0.062780015 -0.06377106 0.010579458 -0.03946818 -0.19601458 -0.015470267 -0.26887804 -0.10229289
0.22953336 -0.28205612 -0.11834383 0.037800044 0.1946168 -0.05352895 -0.07883754 0.054022767
0.12836629 -0.10950349 -0.33553258 -0.0010399763 -0.088621765 -0.015172589 -0.14437783 -0.14013089
-0.11369322 0.052751034 -0.2111946 -0.24879658 -0.2124177 -0.09238287 -0.11362749 -0.12649012
-0.04623254 -0.1555761 -0.12620138 -0.34097734 -0.07048282 0.06956667 -0.067366876 -0.026469683
-0.37026936 -0.2943468 -0.18265134 0.16550414 0.080858715 0.013804468 -0.2275353 -0.08814131
-0.060205776 0.093732946 0.13583176 -0.23095852 0.08500719 -0.25267887 0.03078978 0.11362363
0.083941236 -0.10898838 0.09611213 -0.34165195 -0.02121518 -0.30226675 -0.019049607 0.07875311
-0.2654683 -0.19214962 -0.018810539 -0.030678257 -0.17851149 -0.025614822 -0.118965484 -0.13852336
-0.13937779 -0.13655297 -0.23825367 -0.3616282 -0.15916124 0.17782818 -0.08832985 -0.03259013
0.12560837 -0.30616412 0.094269894 -0.045382317 0.023385495 0.08648869 -0.25352433 -0.058448136
-0.08694761 0.2152304 -0.11877608 -0.059847828 -0.16902326 -0.051893514 -0.20026995 -0.2669809
0.09185704 -0.016344953 -0.20384386 -0.03612571 -0.033015475 -0.07300795 -0.054428697 -0.10191132
0.09002456 0.13566971 -0.23429894 0.14020476 -0.27036896 -0.3061227 -0.014470892 -0.048183303
0.14587362 -0.005865344 -0.0029139179 -0.13895352 -0.15958852 0.05564234 0.19200824 0.10204919
-0.061925437 0.096797585 0.05239927 -0.063045286 -0.07914401 -0.24512981 -0.3069511 -0.0141095
0.040592123 -0.2161597 -0.0876119 -0.11441606 0.14613196 -0.06196676 -0.055508643 0.10183653

main.4.bias f4 [784]
00000000: dbe6 59be 9b83 4fbe 6124 81be b13f 0ebe
00000010: 541c 30be 0fbb 6ebe 056b 62be e359 53be
00000020: 3d88 57be 5d02 63be 2230 39be f93f 35be
00000030: 05ed 4bbe 59d9 4bbe 5f11 1abe 6574 38be
00000040: a647 08be 364b 41be c615 17be 53ed 46be
00000050: eba5 5abe b053 7fbe 2613 7cbe 1ce8 20be
00000060: ae22 48be 5438 08be 5a5b 46be c7af 23be
00000070: 65d6 7bbe 2997 40be 443c 41be e248 01be
00000080: 34c5 0bbe e82e 48be 8e3b 33be 02ca 03be
00000090: aeaa 21be 8b21 0cbe a711 52be 01b0 54be
000000a0: 7a8d 1abe 2d1a cebd ee1d 48be 5a57 81be
000000b0: ea60 f0bd 70d8 86be c062 4bbe 44ba 3bbe
000000c0: 8de1 02be dc8c 4ebe 8d48 51be bd6a 71be
000000d0: 0b14 2abe 155b 4dbe 9cf7 15be 3595 77be
000000e0: 8430 a2be bf26 98be 1f53 3ebe 02c6 37be
000000f0: 2806 81be 9ca8 77be cf8a 83be 6ffd 38be
00000100: 1a3b d0bd 91c8 2ebe 84b6 22be 390c 62be
00000110: 9f55 7fbe 0342 3abe 6f95 21be f089 61be
00000120: 715f 49be 9175 0cbe a616 3cbe af11 1cbe
00000130: 56ca 35be 65b3 31be 2fd0 26be cc73 7ebe
00000140: f87c 3bbe 48f6 d4bd 04d8 1bbe 85b6 04be
00000150: a459 31be b8ae 16be 60fc 37be 7e9a 4fbe
00000160: 93b2 f1bd f0fe 59be 6681 42be bebc 0dbe
00000170: 319b 3abe 7cf5 36be 6023 97bd 0ca7 12be
00000180: 2195 1cbe b92a 31be dd57 0fbe bb7f 75be
00000190: 8b2a 87be d2f3 42be 23af 59be 8f66 12be
000001a0: 00cb 2dbe 6591 e3bd 9002 69be 285e 3bbe
000001b0: dc32 26be ef12 2cbe 7c92 3ebe 1505 febd
000001c0: 4ef7 f6bd 31aa 54be 9abe 54be 22fc dbbd
000001d0: 4d6a 76be 5ad7 49be 6f8d 38be fe5e 11be
000001e0: 6d3a 36be 4a47 37be c69b 21be 620a 0fbe
000001f0: e37f 4cbe 0f49 02be df19 b7bd 9eef 01be
00000200: 9cca 09be 3697 ccbd 5315 07be 8a1d 20be
00000210: 1f53 c7bd 9e62 4fbe 64a6 37be 83ee 38be
00000220: f93c 37be c8bc 16be e168 62be d811 32be
00000230: ed35 5cbe f305 13be 27a1 5bbe 5904 28be
00000240: c061 8cbe c075 bebd 88a7 48be 080f 4ebe
00000250: 416e 2bbe 8cdf 25be 3b58 17be 4766 0fbd
00000260: 3ce6 4cbd 4d31 7abd 062d cebc 9ed8 a3bd
00000270: 46a8 003d 59fe 87bb fae2 73bd 99ed 8abd
00000280: e960 c2bd 42a3 2abe df39 1fbe 9184 12be
00000290: 3f18 2cbe ffc6 88be e9af 4dbe c1fc 16be
000002a0: 18c4 5dbe ebba d2bd 5d49 4bbe a022 57be
000002b0: 5af2 37be c00b 33be 6048 75be 2923 d7bd
000002c0: eb3f 31be b407 fabd 50cb e5bb ce3d a8bd
000002d0: 27ff bebc 1ae6 76bc 4a9d 553d d27b 803c
000002e0: 9da8 0a3d 55e4 813d f828 ec3c 28fb a2bc
000002f0: 42dd 80bd 4522 01be 9363 21be cf48 02be
00000300: 457e 49be 10a4 1bbe 3730 31be 62c8 0abe
00000310: e82e 69be d22e 1fbe 53a9 85be 60ab 46be
00000320: c0a9 bfbd 331c f2bd 5012 3dbe cd72 53be
00000330: 7040 02be c425 fdbc ef9c 65bc 2e2f 223d
00000340: 4eda 8abd 8ee4 953c 5c9f 583d 204e 093a
00000350: 0b35 67bd ebb2 2c3d 6295 f23c 97af 82bb
00000360: b2d9 0fbd 6547 7c3c 128a 03be 5b1e 0fbe
00000370: c4cb 63be 87d8 fabd c62a 73be 7764 21be
00000380: 7c6b 25be c78f 4ebe cb15 0dbe e7a5 11be
00000390: baac 07be 8c01 6dbe 74df 42be 0d74 39be
000003a0: 982a f2bd 3fcf 84bd 31a1 cc3c 4bb7 2c3a
000003b0: fa6f 03bc 0fe7 ffbc 52df c7bd 8a44 acbd
000003c0: a32f 5ebd 2974 a7bc 9acc 31bd 6b5e 9cbd
000003d0: 71f4 3abd bf0e 81bd 73c6 86bd 9753 1dbe
000003e0: bb1c f7bd 0a40 82be 8c61 60be 6f7d 1cbe
000003f0: 2a1d 4abe 5866 5bbe b9dd 16be 9c66 79be
-0.2127947 -0.20265047 -0.25223067 -0.13891484 -0.17198306 -0.23313545 -0.22111137 -0.20639758
-0.21048065 -0.2216887 -0.18084767 -0.17700185 -0.19914635 -0.1990713 -0.15045689 -0.18013151
-0.13308582 -0.18876347 -0.147544 -0.1942647 -0.21352355 -0.24934268 -0.2461668 -0.15713543
-0.19544479 -0.13302737 -0.19370785 -0.15985022 -0.24593504 -0.18807663 -0.18870646 -0.12625459
-0.13649446 -0.19549143 -0.17503187 -0.12870029 -0.15787765 -0.1368467 -0.20514546 -0.20770265
-0.15093032 -0.100635864 -0.19542667 -0.25261956 -0.11737235 -0.26337004 -0.19861889 -0.18332773
-0.12781353 -0.20170921 -0.20437832 -0.23575874 -0.16609208 -0.20054276 -0.14645237 -0.24178012
-0.3167764 -0.2971706 -0.18586396 -0.17946628 -0.2520001 -0.24185413 -0.2569184 -0.18065427
-0.10167523 -0.17068698 -0.15889937 -0.22074975 -0.24935006 -0.18189244 -0.1577966 -0.22025275
-0.19665314 -0.13716723 -0.18368015 -0.15241121 -0.17752966 -0.1735359 -0.16290353 -0.2484886
-0.1830939 -0.10398537 -0.15219122 -0.1296025 -0.17319351 -0.14715087 -0.17967367 -0.20273778
-0.118016385 -0.21288657 -0.18994674 -0.1384153 -0.18223263 -0.17867082 -0.07379794 -0.14321536
-0.15291263 -0.17301454 -0.13998361 -0.23974507 -0.26399645 -0.19038323 -0.21258216 -0.14296935
-0.1697197 -0.11111716 -0.22754884 -0.18297637 -0.16230339 -0.16804098 -0.18610567 -0.12403313
-0.120588884 -0.20768048 -0.20775834 -0.1074145 -0.24063988 -0.19711056 -0.18022703 -0.14196393
-0.17795725 -0.17898288 -0.15782079 -0.13968804 -0.1997066 -0.12723182 -0.089404814 -0.12689063
-0.13456196 -0.09989779 -0.13191728 -0.15636268 -0.09732651 -0.20252463 -0.17934567 -0.18059735
-0.17894353 -0.14720452 -0.2211032 -0.1738962 -0.21504946 -0.14357738 -0.21448193 -0.16407908
-0.27418327 -0.09299803 -0.19595158 -0.20122921 -0.16741277 -0.16198558 -0.14779751 -0.03500965
-0.050024256 -0.061082173 -0.025167953 -0.08000301 0.031410478 -0.0041501937 -0.059542634 -0.067835994
-0.094911404 -0.1666384 -0.1554942 -0.14308383 -0.16806124 -0.26714322 -0.20086636 -0.14744855
-0.21656835 -0.10289558 -0.19852205 -0.21009302 -0.17963544 -0.17484951 -0.2395339 -0.10504753
-0.17309539 -0.122085005 -0.007012762 -0.08214913 -0.023315025 -0.015069509 0.052151956 0.015684042
0.03385221 0.06342379 0.02882813 -0.019895151 -0.062922016 -0.12610729 -0.15760641 -0.12723087
-0.19677074 -0.15199304 -0.17303549 -0.13553002 -0.227718 -0.15545204 -0.26105747 -0.19401312
-0.09358549 -0.11821785 -0.18464017 -0.20649262 -0.12719893 -0.030901797 -0.014014467 0.039595775
-0.067799196 0.01829746 0.052886352 0.0005237777 -0.05644707 0.042162817 0.029612247 -0.003988217
-0.03511972 0.015397881 -0.12845638 -0.13976423 -0.22245699 -0.122483306 -0.23746786 -0.1576098
-0.16154283 -0.20172034 -0.13777845 -0.14223443 -0.13249484 -0.23145121 -0.19030553 -0.18110676
-0.1182453 -0.064848416 0.024979206 0.0006588592 -0.008022303 -0.031238107 -0.09759392 -0.0841151
-0.05424465 -0.020441132 -0.043408014 -0.07635196 -0.045643274 -0.06301641 -0.0658082 -0.15363918
-0.12066027 -0.25439483 -0.21912211 -0.15282224 -0.19737688 -0.2142576 -0.14733018 -0.24355549
